…
.conv1.weight', 'encoder_radar.layer2.1.bn3.bias', 'encoder_radar.layer2.1.bn1.weight', 'encoder_radar.layer2.2.bn1.running_mean', 'encoder_radar.layer2.0.bn2.bias', 'encoder_radar.layer2.0.downsample.1.weight', 'encoder_radar.layer1.2.bn1.running_mean', 'encoder_radar.layer2.2.bn3.bias', 'encoder_radar.layer1.2.bn1.running_var', 'encoder_radar.layer4.1.bn1.num_batches_tracked']
You should probably TRAIN this model on a down-stream task to be able to use it for predictions and inference.
torch.Size([32, 50, 768])
CLIPVisionTransformer(
  (embeddings): CLIPVisionEmbeddings(
    (patch_embedding): Conv2d(3, 768, kernel_size=(32, 32), stride=(32, 32), bias=False)
    (position_embedding): Embedding(50, 768)
  )
  (pre_layrnorm): LayerNorm((768,), eps=1e-05, elementwise_affine=True)
  (encoder): CLIPEncoder(
    (layers): ModuleList(
      (0-11): 12 x CLIPEncoderLayer(
        (self_attn): CLIPAttention(
          (k_proj): Linear(in_features=768, out_features=768, bias=True)
          (v_proj): Linear(in_features=768, out_features=768, bias=True)
          (q_proj): Linear(in_features=768, out_features=768, bias=True)
          (out_proj): Linear(in_features=768, out_features=768, bias=True)
        )
        (layer_norm1): LayerNorm((768,), eps=1e-05, elementwise_affine=True)
        (mlp): CLIPMLP(
          (activation_fn): QuickGELUActivation()
          (fc1): Linear(in_features=768, out_features=3072, bias=True)
          (fc2): Linear(in_features=3072, out_features=768, bias=True)
        )
        (layer_norm2): LayerNorm((768,), eps=1e-05, elementwise_affine=True)
      )
    )
  )
  (post_layernorm): LayerNorm((768,), eps=1e-05, elementwise_affine=True)
)